…
ser_tz":-540,"elapsed":811,"user":{"displayName":"김성운","photoUrl":"https://lh3.googleusercontent.com/a-/AOh14GiC5CpKIyjWYn7TdIELazzD4VZkcO1rHtqlncIS=s64","userId":"03812152040725883613"}},"outputId":"4eb163a2-bbb5-43e6-d72f-b1241e78217c"},"source":["model.summary()"],"execution_count":null,"outputs":[{"output_type":"stream","text":["Model: \"sequential\"\n","_________________________________________________________________\n","Layer (type)                 Output Shape              Param #   \n","=================================================================\n","conv2d (Conv2D)              (None, 64, 64, 32)        896       \n","_________________________________________________________________\n","max_pooling2d (MaxPooling2D) (None, 32, 32, 32)        0         \n","_________________________________________________________________\n","dropout (Dropout)            (None, 32, 32, 32)        0         \n","_________________________________________________________________\n","conv2d_1 (Conv2D)            (None, 32, 32, 64)        18496     \n","_________________________________________________________________\n","max_pooling2d_1 (MaxPooling2 (None, 16, 16, 64)        0         \n","_________________________________________________________________\n","dropout_1 (Dropout)          (None, 16, 16, 64)        0         \n","_________________________________________________________________\n","conv2d_2 (Conv2D)            (None, 16, 16, 128)       73856     \n","_________________________________________________________________\n","max_pooling2d_2 (MaxPooling2 (None, 8, 8, 128)         0         \n","_________________________________________________________________\n","dropout_2 (Dropout)          (None, 8, 8, 128)         0         \n","_________________________________________________________________\n","flatten (Flatten)            (None, 8192)              0         \n","_________________________________________________________________\n","dense (Dense)                (None, 256)               2097408   \n","_________________________________________________________________\n","dropout_3 (Dropout)          (None, 256)               0         \n","_________________________________________________________________\n","dense_1 (Dense)              (None, 10)                2570      \n","=================================================================\n","Total params: 2,193,226\n","Trainable params: 2,193,226\n","Non-trainable params: 0\n","_________________________________________________________________\n"],"name":"stdout"}]},{"cell_type":"markdown","metadata":{"id":"hfTblMkXgjNx"},"source":["## 컨볼루션 레이어 시각화\n"]},{"cell_type":"code","metadata":{"colab":{"base_uri":"
…
G16(weights='imagenet', include_top=False, input_shape=(64,64,3))\n","transfer_model.trainable =False\n","transfer_model.summary()"],"execution_count":null,"outputs":[{"output_type":"stream","text":["Model: \"vgg16\"\n","_________________________________________________________________\n","Layer (type)                 Output Shape              Param #   \n","=================================================================\n","input_2 (InputLayer)         [(None, 64, 64, 3)]       0         \n","_________________________________________________________________\n","block1_conv1 (Conv2D)        (None, 64, 64, 64)        1792      \n","_________________________________________________________________\n","block1_conv2 (Conv2D)        (None, 64, 64, 64)        36928     \n","_________________________________________________________________\n","block1_pool (MaxPooling2D)   (None, 32, 32, 64)        0         \n","_________________________________________________________________\n","block2_conv1 (Conv2D)        (None, 32, 32, 128)       73856     \n","_________________________________________________________________\n","block2_conv2 (Conv2D)        (None, 32, 32, 128)       147584    \n","_________________________________________________________________\n","block2_pool (MaxPooling2D)   (None, 16, 16, 128)       0         \n","_________________________________________________________________\n","block3_conv1 (Conv2D)        (None, 16, 16, 256)       295168    \n","_________________________________________________________________\n","block3_conv2 (Conv2D)        (None, 16, 16, 256)       590080    \n","_________________________________________________________________\n","block3_conv3 (Conv2D)        (None, 16, 16, 256)       590080    \n","_________________________________________________________________\n","block3_pool (MaxPooling2D)   (None, 8, 8, 256)         0         \n","_________________________________________________________________\n","block4_conv1 (Conv2D)        (None, 8, 8, 512)         1180160   \n","_________________________________________________________________\n","block4_conv2 (Conv2D)        (None, 8, 8, 512)         2359808   \n","_________________________________________________________________\n","block4_conv3 (Conv2D)        (None, 8, 8, 512)         2359808   \n","_________________________________________________________________\n","block4_pool (MaxPooling2D)   (None, 4, 4, 512)         0         \n","_________________________________________________________________\n","block5_conv1 (Conv2D)        (None, 4, 4, 512)         2359808   \n","_________________________________________________________________\n","block5_conv2 (Conv2D)        (None, 4, 4, 512)         2359808   \n","_________________________________________________________________\n","block5_conv3 (Conv2D)        (None, 4, 4, 512)         2359808   \n","_________________________________________________________________\n","block5_pool (MaxPooling2D)   (None, 2, 2, 512)         0         \n","=================================================================\n","Total params: 14,714,688\n","Trainable params: 0\n","Non-trainable params: 14,714,688\n","_________________________________________________________________\n"],"name":"stdout"}]},{"cell_type":"code","metadata":{"id":"dDiSMcQW8rT_"},"source":["from tensorflow.keras import models , optimizers"],"execution_count":null
…
