…
"user_tz":-540,"elapsed":516,"user":{"displayName":"김성운","photoUrl":"https://lh3.googleusercontent.com/a-/AOh14GiC5CpKIyjWYn7TdIELazzD4VZkcO1rHtqlncIS=s64","userId":"03812152040725883613"}},"outputId":"c594094f-5525-4057-c6a8-84aa65c1caa1"},"source":["model.summary()"],"execution_count":38,"outputs":[{"output_type":"stream","text":["Model: \"sequential\"\n","_________________________________________________________________\n","Layer (type)                 Output Shape              Param #   \n","=================================================================\n","conv2d (Conv2D)              (None, 128, 128, 32)      896       \n","_________________________________________________________________\n","max_pooling2d (MaxPooling2D) (None, 64, 64, 32)        0         \n","_________________________________________________________________\n","dropout (Dropout)            (None, 64, 64, 32)        0         \n","_________________________________________________________________\n","conv2d_1 (Conv2D)            (None, 64, 64, 64)        18496     \n","_________________________________________________________________\n","max_pooling2d_1 (MaxPooling2 (None, 32, 32, 64)        0         \n","_________________________________________________________________\n","dropout_1 (Dropout)          (None, 32, 32, 64)        0         \n","_________________________________________________________________\n","flatten (Flatten)            (None, 65536)             0         \n","_________________________________________________________________\n","dense (Dense)                (None, 256)               16777472  \n","_________________________________________________________________\n","dropout_2 (Dropout)          (None, 256)               0         \n","_________________________________________________________________\n","dense_1 (Dense)              (None, 5)                 1285      \n","=================================================================\n","Total params: 16,798,149\n","Trainable params: 16,798,149\n","Non-trainable params: 0\n","_________________________________________________________________\n"],"name":"stdout"}]},{"cell_type":"code","metadata":{"colab":{"base_uri":"https://localhost:8080/"},"id":"mtltWpyBHmp-","executionInfo":{"status":"ok","timestamp
…
